…
定义你的网络架构model.add(Conv2D(16,(2,2),input_shape=(224,224,3),activation='relu'))model.add(MaxPooling2D(pool_size=(3,3),strides=2))model.add(Conv2D(32,(2,2),activation='relu'))model.add(MaxPooling2D(pool_size=(2,2),strides=2))model.add(Conv2D(64,(2,2),activation='relu'))model.add(MaxPooling2D(pool_size=(2,2),strides=2))model.add(GlobalAveragePooling2D())model.add(Dense(units=133,activation='softmax'))model.summary() _________________________________________________________________ Layer (type) Output Shape Param # ================================================================= conv2d_1 (Conv2D) (None, 223, 223, 16) 208 _________________________________________________________________ max_pooling2d_2 (MaxPooling2 (None, 111, 111, 16) 0 _________________________________________________________________ conv2d_2 (Conv2D) (None, 110, 110, 32) 2080 _________________________________________________________________ max_pooling2d_3 (MaxPooling2 (None, 55, 55, 32) 0 _________________________________________________________________ conv2d_3 (Conv2D) (None, 54, 54, 64) 8256 _________________________________________________________________ max_pooling2d_4 (MaxPooling2 (None, 27, 27, 64) 0 _________________________________________________________________ global_average_pooling2d_1 ( (None, 64) 0 _________________________________________________________________ dense_1 (Dense) (None, 133) 8645 ================================================================= Total params: 19,189.0 Trainable params: 19,189.0 Non-trainable params: 0.0 _________________________________________________________________12## 编译模型model.compile(optimizer='rmsprop', loss='categorical_crossentropy', metrics=['accuracy']) 【练习】训练模型 问题 5:在下方代码单元训练模型。使用模型检查点（model checkpointing）来储存具有最低验证集 loss 的模型。 可选题：你也可以对训练集进行 数据增
…
outfrom keras.models import SequentialXception_model = Sequential()Xception_model.add(GlobalAveragePooling2D(input_shape = train_Xception.shape[1:]))Xception_model.add(Dense(units=1024, activation='relu'))Xception_model.add(Dropout(0.2))Xception_model.add(Dense(units=256,activation='relu'))Xception_model.add(Dropout(0.2))Xception_model.add(Dense(units=133,activation='softmax'))Xception_model.summary() _________________________________________________________________ Layer (type) Output Shape Param # ================================================================= global_average_pooling2d_3 ( (None, 2048) 0 _________________________________________________________________ dense_3 (Dense) (None, 1024) 2098176 _________________________________________________________________ dropout_1 (Dropout) (None, 1024) 0 _________________________________________________________________ dense_4 (Dense) (None, 256) 262400 _________________________________________________________________ dropout_2 (Dropout) (None, 256) 0 _________________________________________________________________ dense_5 (Dense) (None, 133) 34181 ================================================================= Total params: 2,394,757.0 Trainable params: 2,394,757.0 Non-trainable params: 0.0 _________________________________________________________________12### TODO: 编译模型Xception_model.compile(loss='categorical_crossentropy', optimizer='adam', metrics=['accuracy']) 【练习】训练模型 问题 7:在下方代码单元中训练你的模型。使用模型检查点（model checkpointing）来储存具有最低验证集 loss 的
…
